pgd_robust.pth (torch, 798871 bytes, 6 tensors)

layer_list.0.weight f4 [200, 784]
6.6349444e-06 1.1348896e-05 -8.7738204e-05 -4.380591e-05 0.00014312545 -3.9776874e-05 -5.5797558e-05 5.5498727e-05
-3.9619084e-05 -0.00013674113 -1.1821176e-05 -2.1338445e-05 -0.00010493974 -9.437979e-05 -1.7065011e-05 4.9461887e-05
1.0052143e-05 -3.5632867e-05 -3.9792747e-05 8.392536e-05 4.4781707e-05 1.5478634e-05 8.8047746e-05 7.34497e-05
-1.506255e-05 2.3780334e-05 -1.5336198e-05 -2.5431924e-05 -2.0053836e-05 -8.9746696e-05 -3.35697e-05 4.015238e-05
-0.00013961892 -5.144681e-05 -4.8228947e-05 3.479972e-05 1.5143677e-05 -5.23218e-05 -9.608578e-05 -4.1680792e-05
8.728594e-05 8.124838e-05 5.373081e-05 -0.00014047843 -0.00012001826 2.4910842e-05 -3.083273e-05 -0.00011151776
5.1621773e-05 2.5761141e-05 -0.00011120439 -7.139311e-05 -0.0001665295 1.9352708e-05 5.726871e-05 1.7587952e-05
0.00011154384 -0.00010096813 -6.468022e-05 9.1561655e-05 -0.00013802474 -9.115538e-05 -9.591297e-05 1.0662638e-05
-2.2332786e-05 4.277228e-05 3.6993795e-06 -6.180364e-05 -0.00012794565 -9.6559315e-06 7.523068e-05 4.670359e-05
0.0001077029 -0.00010247532 5.8062174e-06 0.00017366617 7.8525365e-05 0.00012838164 -9.936009e-05 -0.00013079756
-8.516689e-05 3.7314414e-05 0.000119993456 -6.484971e-05 -9.371211e-05 -6.564182e-05 -6.399838e-05 -3.815457e-08
-3.9511553e-05 7.263037e-06 0.0002549397 0.000196525 0.00012802603 7.06822e-05 0.00018012585 0.00024876848
0.00015453156 0.0003671991 0.00059202564 0.00037032078 3.6066704e-06 0.000114143826 0.00012519167 -8.108368e-05
0.00010279264 8.406248e-07 2.0182828e-05 -3.7585458e-05 -2.2770926e-05 -0.00018083854 -0.00012801321 -0.000116415766
-5.6550853e-05 0.000101126156 -2.2639393e-05 -1.983475e-05 5.601617e-05 1.8946299e-05 0.00029164678 5.5179713e-05
-0.000117714946 -0.00039529675 -0.001563799 0.00035800732 0.0015924077 0.01082564 0.03757868 0.037695996
0.032540996 0.01584259 0.0049690516 0.00065217144 0.00022618184 0.00025239342 0.00019883375 3.682067e-05
3.105195e-05 -2.0629725e-05 -1.212337e-05 -0.00015258077 4.6486275e-05 -3.973426e-05 -2.4965431e-05 -0.00010834802
6.3967644e-05 0.00014549027 -9.91516e-05 0.00027352737 -0.0004293487 -0.006296417 -0.015188908 0.025801087
0.08178586 0.123198345 0.20343019 0.32267514 0.29207534 0.22529012 0.11778338 0.042738464
0.0031896005 0.00015263597 -0.00024581977 -4.985654e-05 -5.9787988e-05 -0.00015622062 6.5321205e-05 -9.389771e-05
0.00010721132 -0.00013995133 -3.5734276e-05 -0.00017829552 2.5441912e-05 -0.00025543701 0.00014074158 0.0012303283
-0.0060874564 -0.005829135 0.0068634353 0.0277108 0.07714589 0.14497794 0.2519599 0.34750652
0.23002854 0.118868 0.02741769 -0.016660077 -0.035776645 -0.02613824 -0.0035849372 -0.000495055
-5.4359083e-05 0.00016783572 -0.0002288636 -4.3106545e-05 -7.432547e-05 0.00021858694 -5.3562812e-06 -2.8534203e-05
4.887294e-05 -0.00017495753 0.0009871478 0.0011975631 -0.003994212 0.007021251 0.024450086 0.06347815
0.118296094 0.15361196 0.22899194 0.16091563 0.016302567 -0.09569479 -0.10448324 -0.100111544
-0.096757784 -0.08395793 -0.039222714 -0.0016226165 1.427934e-05 -9.801786e-05 -0.00013077601 -3.2304008e-05
-0.00012736412 0.00012701613 2.2141663e-05 0.00022438788 0.00015050307 0.00013962557 0.001429697 0.0021631694
0.010774039 0.03102903 0.06326648 0.10022759 0.056732677 -0.054459307 -0.14685996 -0.21958494
-0.22103082 -0.14164071 -0.070339166 -0.0357679 -0.050717186 -0.06311949 -0.026688237 -0.002189904
-0.0005260739 3.165796e-05 -4.5563487e-05 -4.1541865e-05 -1.3084875e-05 -2.1345324e-05 -9.496775e-05 0.00019784099
00000000: bda1 de36 2367 3e37 1700 b8b8 3dbc 37b8
00000010: f213 1639 18d6 26b8 2c08 6ab8 4ec7 6838
00000020: ab2c 26b8 2b62 0fb9 9053 46b7 f6ff b2b7
00000030: 1813 dcb8 c4ed c5b8 d526 8fb7 4c75 4f38
00000040: a0a5 2837 8074 15b8 23e7 26b8 1601 b038
00000050: fed3 3b38 1dd8 8137 46a6 b838 0209 9a38
00000060: 29b5 7cb7 e17b c737 3ca6 80b7 a456 d5b7
00000070: 4939 a8b7 6436 bcb8 31cd 0cb8 4a69 2838
00000080: ab66 12b9 97c8 57b8 7049 4ab8 eaf5 1138
00000090: 9911 7e37 1b74 5bb8 a981 c9b8 69d2 2eb8
000000a0: 480d b738 e463 aa38 055d 6138 644d 13b9
000000b0: 50b2 fbb8 a0f7 d037 6452 01b8 a4de e9b8
000000c0: 7584 5838 a119 d837 6736 e9b8 e2b8 95b8
000000d0: 6c9e 2eb9 a057 a237 cf33 7038 d789 9337
000000e0: a5ec e938 dabe d3b8 eea4 87b8 ca04 c038
000000f0: bcba 10b9 ac2a bfb8 e224 c9b8 aee3 3237
00000100: 4b57 bbb7 6366 3338 db42 7836 949c 81b8
00000110: 2629 06b9 e9ff 21b7 2ac5 9d38 99e3 4338
00000120: 8ede e138 05e8 d6b8 07d3 c236 281a 3639
00000130: fcad a438 2f9e 0639 8b5f d0b8 b426 09b9
00000140: a09b b2b8 0c82 1c38 ffa4 fb38 ecff 87b8
00000150: 4e87 c4b8 2fa9 89b8 de36 86b8 65df 23b3
00000160: 35b9 25b8 03b5 f336 6da9 8539 4712 4e39
00000170: ba3e 0639 383b 9438 2ae0 3c39 246d 8239
00000180: c009 2239 a184 c039 2b32 1b3a 9d27 c239
00000190: 200a 7236 8060 ef38 e245 0339 780b aab8
000001a0: 6192 d738 4ca7 6135 4b4e a937 14a5 1db8
000001b0: 3104 bfb7 7a9f 3db9 493b 06b9 3d24 f4b8
000001c0: 0431 6db8 b113 d438 bae9 bdb7 cd62 a6b7
000001d0: e8f2 6a38 deee 9e37 2be8 9839 c470 6738
000001e0: bbdd f6b8 d53f cfb9 63f8 ccba eeb2 bb39
000001f0: 56b8 d03a 065e 313c 1aec 193d 1e67 1a3d
00000200: b549 053d 52c8 813c 6dd3 a23b 7cf6 2a3a
00000210: 3a2b 6d39 ac53 8439 077e 5039 e56f 1a38
00000220: c73d 0238 ff0d adb7 7a65 4bb7 17fe 1fb9
00000230: 42fa 4238 56a8 26b8 db6c d1b7 e638 e3b8
00000240: 5e26 8638 bf8e 1839 9cef cfb8 3968 8f39
00000250: 351a e1b9 2d52 cebb e6da 78bc cd5c d33c
00000260: 587f a73d 6a4f fc3d 0150 503e ad35 a53e
00000270: e68a 953e 74b2 663e 6a38 f13d 870e 2f3d
00000280: 9e08 513b e80c 2039 5fe1 80b9 0d1d 51b8
00000290: ddc4 7ab8 27cf 23b9 0efd 8838 f3ea c4b8
000002a0: a4d6 e038 e6bf 12b9 63e1 15b8 d7f4 3ab9
000002b0: 176c d537 2dec 85b9 0894 1339 f842 a13a
000002c0: 4979 c7bb 5402 bfbb abe6 e03b c201 e33c
000002d0: aafe 9d3d 1975 143e e300 813e 60ec b13e
000002e0: 9a8c 6b3e 1171 f33d 109b e03c b77a 88bc
000002f0: 888a 12bd dd1f d6bc 44f1 6abb 94c6 01ba
00000300: 9fff 63b8 0ffd 2f39 1bfb 6fb9 4dcd 34b8
00000310: 2fdf 9bb8 7c34 6539 1bba b3b6 bc5c efb7
00000320: ebfc 4c38 ce74 37b9 2f63 813a 8df7 9c3a
00000330: e1e1 82bb 8612 e63b 8c4b c83c d500 823d
00000340: 3945 f23d 744c 1d3e dd7c 6a3e 11c7 243e
00000350: f68c 853c a1fb c3bd 4ffb d5bd 4807 cdbd
00000360: f228 c6bd 23f2 abbd ffa7 20bd faad d4ba
00000370: 4c91 6f37 f08e cdb8 eb20 09b9 2a7e 07b8
00000380: 0c8d 05b9 a22f 0539 dcbc b937 aa49 6b39
00000390: 5cd0 1d39 7468 1239 ac64 bb3a f6c3 0d3b
000003a0: 9885 303c 9830 fe3c db91 813d 1f44 cd3d
000003b0: 8660 683d b910 5fbd 7562 16be e0da 60be
000003c0: e755 62be 430a 11be fb0d 90bd 5d81 12bd
000003d0: d3bc 4fbd cb44 81bd 4aa1 dabc 7e84 0fbb
000003e0: 39e8 09ba 7ac8 0438 6c1b 3fb8 3d3d 2eb8
000003f0: 1c87 5bb7 bc0e b3b7 6c29 c7b8 8973 4f39

layer_list.0.bias f4 [200]
0.03714018 -0.023275211 -0.018542577 0.013967443 -0.049607765 0.040212978 -0.017239043 0.12547857
-0.03177619 -0.052491877 -0.049380716 -0.00090405205 0.004064594 -0.038969334 -0.014192264 -0.0068886955
-0.014246988 -0.034986433 0.0992853 0.0087681 0.0054217246 0.16417144 -0.10799184 0.009351226
0.004698665 -0.030916069 0.012557461 0.008677248 -0.0069288267 0.13792554 -0.008809301 -0.01482177
0.12475775 -0.011335734 -0.009567109 0.08981765 0.012127153 0.1289104 0.016618548 -0.07352586
0.14741398 -0.046709783 0.011147562 -0.020904712 0.21675988 -0.014362999 -0.03714433 0.0086743245
-0.015235327 0.17930329 -0.01944449 0.14571553 -0.01366213 0.113978304 -0.024675203 0.0156014925
-0.002433322 -0.030662434 -0.038284108 0.071119994 -0.017493082 -0.046596363 -0.0031836785 -0.024942704
-0.012283982 -0.02576776 -0.021707745 -0.021035213 0.03929869 -0.007096844 -0.04100309 -0.01653018
0.034953758 -0.012426624 0.09715409 -0.025730083 -0.09659739 -0.0349724 -0.077230535 0.22357886
-0.011675427 -0.043586135 -0.02831449 0.0012832978 -0.018649392 -0.0046295966 -0.015148012 -0.03323566
0.010705104 -0.04749376 -0.021453174 -0.018175783 -0.07994064 0.0126279015 -0.15502104 -0.02811495
-0.007033632 -0.037373967 0.03351299 -0.026690552 0.06743333 0.1829591 0.073774904 -0.0478516
-0.013534037 0.038182355 -0.011992269 0.030622702 -0.010557952 0.17187686 -0.041526202 0.16000983
-0.0008284649 -0.042417906 -0.040709805 0.13736746 -0.038753275 -0.09179187 -0.05183553 -0.003908743
-0.025827192 -0.014220318 0.0627186 -0.01972397 -0.033158273 0.01447138 -0.029893726 -0.14605097
-0.04248857 -0.01752607 0.02995831 -0.04238732 0.01395555 -0.045819685 -0.046037022 -0.02442907
0.005468388 -0.016754365 -0.023842085 0.13687734 -0.038932715 -0.04859291 0.014601974 0.15172404
-0.0038260913 0.0023710297 0.008975454 0.019996949 0.0036659758 0.024678724 -0.030355453 0.15405352
0.074272364 0.0101844305 -0.05761925 -0.00017520634 0.07141898 -0.01829678 0.1517071 -0.054363422
0.0056855786 -0.050579432 -0.023734722 -0.02145392 0.10651621 0.16413513 -0.025727177 0.027687943
0.08484561 0.062585436 0.013851544 -0.04315112 -0.00038620003 -0.051938448 -0.03347817 0.0013459738
-0.054555096 -0.02756491 -0.0429028 -0.04087362 0.23961145 0.15540579 -0.09490466 -0.033104032
-0.010657178 0.015838692 -0.044316042 -0.015932472 -0.048921444 -0.0032193465 -0.051245265 -0.02406461
-0.029680146 0.0006187524 0.0010039791 -0.03698871 0.008769473 -0.0385007 -0.0026146441 0.012170953
00000000: 4d20 183d a8ab bebc 9ae6 97bc b4d7 643c
00000010: 8331 4bbd 5db6 243d e538 8dbc 747d 003e
00000020: c027 02bd b901 57bd 6f43 4abd e8fd 6cba
00000030: 4930 853b 4f9e 1fbd ab86 68bc 91ba e1bb
00000040: 336c 69bc ef4d 0fbd 1756 cb3d 14a8 0f3c
00000050: b9a8 b13b 8f1c 283e d32a ddbd e235 193c
00000060: 42f7 993b b243 fdbc cfbd 4d3c 042b 0e3c
00000070: 360b e3bb 5a3c 0d3e e354 10bc 02d7 72bc
00000080: fe80 ff3d 84b9 39bc 5dbf 1cbc 51f2 b73d
00000090: f7b0 463c 1701 043e 9f23 883c ba94 96bd
000000a0: b1f3 163e c252 3fbd 44a4 363c 5c40 abbc
000000b0: 4df6 5d3e c952 6bbc a724 18bd c11e 0e3c
000000c0: 989d 79bc 489b 373e 0d4a 9fbc 7436 153e
000000d0: 20d7 5fbc 756d e93d a723 cabc 679d 7f3c
000000e0: 5e78 1fbb c92f fbbc cccf 1cbd 5ca7 913d
000000f0: a74d 8fbc d4db 3ebd 43a5 50bb a454 ccbc
00000100: c142 49bc e916 d3bc 71d4 b1bc 0a52 acbc
00000110: aaf7 203d a48c e8bb dbf2 27bd 4d6a 87bc
00000120: ac2b 0f3d 0a99 4bbc b9f8 c63d e5c7 d2bc
00000130: dad4 c5bd 383f 0fbd 0b2b 9ebd dbf1 643e
00000140: 4a4a 3fbc 6087 32bd caf3 e7bc 5434 a83a
00000150: 9cc6 98bc dfb3 97bb 5e2f 78bc 1e22 08bd
00000160: 7664 2f3c d188 42bd 91be afbc 61e5 94bc
00000170: ebb7 a3bd 42e5 4e3c d6bd 1ebe 5351 e6bc
00000180: 627a e6bb 7215 19bd eb44 093d 25a6 dabc
00000190: 7c1a 8a3d a159 3b3e 4c17 973d 0a00 44bd
000001a0: debd 5dbc 1a65 1c3d 397b 44bc 76dc fa3c
000001b0: 43fb 2cbc 7d00 303e 6117 2abd 9ed9 233e
000001c0: 572d 59ba 66be 2dbd 53bf 26bd 0eaa 0c3e
000001d0: c1bb 1ebd 60fd bbbd 7e51 54bd ea14 80bb
000001e0: 8c93 d3bc 56fc 68bc 9c72 803d 2a94 a1bc
000001f0: f8d0 07bd 5e19 6d3c b0e3 f4bc 638e 15be
00000200: 7f08 2ebd d592 8fbc 216b f53c 549e 2dbd
00000210: d2a5 643c 6cad 3bbd 5191 3cbd 791f c8bc
00000220: 2a30 b33b 7340 89bc 7a50 c3bc 9329 0c3e
00000230: e977 1fbd 5c09 47bd 1e3d 6f3c 8c5d 1b3e
00000240: 29bf 7abb 4763 1b3b c80d 133c a4d0 a33c
00000250: de40 703b 092b ca3c 00ac f8bc 35c0 1d3e
00000260: 1c1c 983d 99dc 263c 2a02 6cbd 98b7 37b9
00000270: 1d44 923d 21e3 95bc 1b59 1b3e 2eac 5ebd
00000280: 174e ba3b 612c 4fbd 526f c2bc 22c0 afbc
00000290: 2c25 da3d 0a13 283e cdc1 d2bc d3d1 e23c
000002a0: 89c3 ad3d cb2c 803d 96f1 623c 3bbf 30bd
000002b0: e47a cab9 69bd 54bd 6820 09bd 636b b03a
000002c0: 2a75 5fbd cecf e1bc d9ba 2fbd 196b 27bd
000002d0: b45c 753e b222 1f3e 605d c2bd 1898 07bd
000002e0: 729b 2ebc 25c0 813c bd84 35bd d184 82bc
000002f0: da61 48bd acfb 52bb 8ee6 51bd 2523 c5bc
00000300: c723 f3bc c533 223a f397 833a 7981 17bd
00000310: d6ad 0f3c e9b2 1dbd 735a 2bbb ad68 473c

layer_list.1.weight f4 [200, 200]
0.029909605 0.06579824 0.0055411635 -0.046935298 0.016828867 0.00070836715 0.028043406 -0.017947858
-0.06643499 0.036707155 -0.016058497 0.0056853998 -0.018607194 0.030242536 0.011247336 -0.008043104
0.06401605 -0.023138225 -0.053308558 -0.0154454 -0.00016222308 0.004481554 -0.043728005 -0.014835238
0.006627488 -0.056633856 0.035291474 -0.02941657 0.035844933 -0.06861184 0.06564982 -0.024260335
0.06704968 -0.033213694 0.038610257 -0.0028854706 -0.037326865 0.03235972 -0.040001053 -0.013927762
-0.054701805 0.03418079 0.01453796 0.0010286103 0.042664103 -0.014069975 -0.045679647 0.025178982
-0.055678114 0.021270202 -0.030338526 -0.071414374 -0.015667435 0.063660406 -0.01681711 0.0029111789
-0.0590814 -0.038905893 0.002120294 -0.04322181 -0.008349213 0.01482469 -0.026485516 0.004461932
-0.06925097 -0.05394162 -0.006350027 -0.034386765 0.007882047 -0.04070563 -0.015242095 -0.033863377
-0.0067325966 -0.0286166 -0.020576246 -0.06423654 -0.03349464 -0.040147137 0.048185382 -0.0051414156
-0.03723019 -0.04360779 -0.023006195 -0.010939974 0.0464045 -0.045463152 0.006874926 -0.025249599
0.032822642 -0.016066665 0.035015453 -0.006464756 -0.013824979 -0.07059115 0.025262471 -0.06463838
0.028687494 0.04774652 0.003273175 0.020733448 -0.034424663 0.03799968 -0.07139082 0.06232459
0.0051142126 0.03546995 -0.014567955 -0.042192884 -0.013794486 0.032275733 0.026239468 -0.0177161
-0.040754505 0.007927305 0.025072884 -0.08000284 0.051472448 0.078136384 -0.018407185 -0.05652603
0.020102797 0.032929268 0.07323594 0.017314686 -0.062942274 0.006179125 -0.030914309 0.06213028
-0.038426578 0.050138056 -0.028528892 -0.069436476 0.032945193 -0.0027074297 0.06449315 -0.04180425
0.050345566 0.0119259 -0.032086827 -0.025959427 -0.04694548 0.0039893547 -0.041260995 -0.00042466793
-0.056411225 0.03255796 0.046992898 -0.003537003 -0.021949654 0.0150925005 0.06809979 0.0023217953
-0.053578783 0.0011296631 -0.043361016 -0.0068325237 -0.012163129 0.060182903 0.008463478 0.07229768
-0.02981982 0.05205005 0.06395855 -0.06934284 0.010486946 0.07002367 0.020945016 -0.007400592
-0.05737563 0.039034463 -0.03686031 -0.037167005 0.03468273 -0.055634473 0.06899309 0.058338985
0.061533164 -0.0061923554 0.051785164 -0.010506036 -0.05620617 -0.03835608 -0.02831892 -0.008197448
-0.018837122 0.03682878 -0.04819026 -0.06480493 -0.0078096604 -0.0071845353 0.06541241 -0.064635605
-0.030973166 0.04135958 0.019061785 0.039397776 0.04372851 -0.0126420595 -0.007670997 0.058880072
0.20852964 -0.012315036 -0.01912403 0.07215599 0.06134004 -0.045000486 0.0054732505 -0.023885688
-0.016805384 0.009633375 -0.049050312 0.05677946 0.1351335 0.043623887 -0.0046976176 0.05463121
0.03359058 0.060730655 -0.06776231 0.03856877 -0.014965931 0.028195273 -0.1796302 0.04994504
0.03722229 0.015926547 -0.003717235 -0.038519483 -0.023771403 0.027162587 -0.013247135 -0.016178522
-0.019020839 0.013326831 0.13541415 0.13464056 0.05337775 0.21779737 -0.023649642 -0.09155801
-0.053893592 -0.05680521 -0.03155966 -0.008407007 0.08943761 -0.02469272 0.029953968 -0.010469251
0.034553904 0.07770258 0.055059012 0.11322898 -0.029870523 0.114027575 -0.058605373 0.002049247
00000000: fd04 f53c 3ac1 863d a692 b53b 3a3f 40bd
00000010: b1dc 893c b7b1 393a 49bb e53c 6307 93bc
00000020: 110f 88bd 3e5a 163d 1c8d 83bc 974c ba3b
00000030: 1d6e 98bc 32bf f73c bf46 383c 39c7 03bc
00000040: d91a 833d 608c bdbc 135a 5abd b40e 7dbc
00000050: 6d1a 2ab9 00da 923b 231c 33bd 800f 73bc
00000060: 662b d93b e7f8 67bd cb8d 103d 05fb f0bc
00000070: 23d2 123d 5d84 8cbd 6a73 863d 9cbd c6bc
00000080: 5851 893d 150b 08bd ca25 1e3d 2a1a 3dbb
00000090: 0ee4 18bd a08b 043d 25d8 23bd 4531 64bc
000000a0: 000f 60bd 2801 0c3d a030 6e3c 6fd2 863a
000000b0: 8ec0 2e3d c185 66bc 951a 3bbd 2744 ce3c
000000c0: bc0e 64bd d93e ae3c 8088 f8bc b341 92bd
000000d0: fe58 80bc 6360 823d 09c4 89bc 7ac9 3e3b
000000e0: 57ff 71bd c95b 1fbd a1f4 0a3b 5a09 31bd
000000f0: 23cb 08bc 42e3 723c 27f8 d8bc 6635 923b
00000100: 74d3 8dbd e3f1 5cbd e313 d0bb 23d9 0cbd
00000110: b423 013c f2ba 26bd fbb9 79bc 53b4 0abd
00000120: 1d9d dcbb 5c6d eabc 848f a8bc 728e 83bd
00000130: ad31 09bd 5371 24bd 095e 453d 5279 a8bb
00000140: af7e 18bd 159e 32bd 7d77 bcbc 943d 33bc
00000150: a512 3e3d 9237 3abd 0f47 e13b 3fd8 cebc
00000160: 0971 063d 3d9e 83bc 5d6c 0f3d 4ed6 d3bb
00000170: 2a82 62bc 1892 90bd 3ef3 ce3c 2161 84bd
00000180: 0902 eb3c db91 433d c482 563b 31d9 a93c
00000190: e000 0dbd 8da5 1b3d 5a35 92bd 1248 7f3d
000001a0: 2095 a73b f048 113d 6fae 6ebc 72d2 2cbd
000001b0: 4502 62bc 8f33 043d 27f4 d63c 5b21 91bc
000001c0: 32ee 26bd 87e1 013c a665 cd3c 87d8 a3bd
000001d0: c6d4 523d f805 a03d aaca 96bc d787 67bd
000001e0: 9fae a43c d7e0 063d b9fc 953d 87d7 8d3c
000001f0: e1e7 80bd 427a ca3b 0140 fdbc 527c 7e3d
00000200: 3065 1dbd 905d 4d3d 6cb5 e9bc b634 8ebd
00000210: 8af1 063d 226f 31bb fc14 843d ef3a 2bbd
00000220: 2737 4e3d da64 433c 7a6d 03bd dda8 d4bc
00000230: e749 40bd 22b9 823b 4a01 29bd f7a5 deb9
00000240: 750f 67bd 7f5b 053d a07b 403d 10cd 67bb
00000250: c3cf b3bc 8946 773c e777 8b3d 4329 183b
00000260: 6d75 5bbd 3411 943a 529b 31bd 5de3 dfbb
00000270: dc47 47bc 5982 763d 66aa 0a3c ce10 943d
00000280: b248 f4bc 6f32 553d b3fc 823d 9e03 8ebd
00000290: 71d1 2b3c 9268 8f3d e294 ab3c aa80 f2bb
000002a0: b502 6bbd 9ae2 1f3d d6fa 16bd 6e3c 18bd
000002b0: 7a0f 0e3d f9e0 63bd 404c 8d3d dcf4 6e3d
000002c0: 330a 7c3d 3ee9 cabb ae1c 543d 8221 2cbc
000002d0: 7138 66bd 441b 1dbd 14fd e7bc 974e 06bc
000002e0: 4f50 9abc c6d9 163d 2663 45bd 72b8 84bd
000002f0: 2ee8 ffbb 406c ebbb f1f6 853d ac5f 84bd
00000300: 70bb fdbc aa68 293d 7627 9c3c 905f 213d
00000310: ab1c 333d a420 4fbc fd5c fbbb 3b2c 713d
00000320: cb88 553e 01c5 49bc ffa9 9cbc 85c6 933d
00000330: b23f 7b3d 6e52 38bd f458 b33b ebab c3bc
00000340: 72ab 89bc 4ed5 1d3c fbe8 48bd 9491 683d
00000350: 7060 0a3e f6ae 323d 79ee 99bb fac4 5f3d
00000360: 4796 093d b5c0 783d f7c6 8abd 49fa 1d3d
00000370: aa33 75bc c6f9 e63c fbf0 37be 2c93 4c3d
00000380: 6676 183d 6478 823c db9c 73bb 9bc6 1dbd
00000390: 3fbc c2bc 1384 de3c 830a 59bc d288 84bc
000003a0: 97d1 9bbc c858 5a3c 02aa 0a3e 37df 093e
000003b0: a1a2 5a3d 4606 5f3e e5bc c1bc c482 bbbd
000003c0: 87bf 5cbd 94ac 68bd b444 01bd 8bbd 09bc
000003d0: 112b b73d 6348 cabc 0662 f53c 3987 2bbc
000003e0: 6588 0d3d 8822 9f3d 8f85 613d 98e4 e73d
000003f0: 07b3 f4bc 4a87 e93d 300c 70bd a94c 063b

layer_list.1.bias f4 [200]
0.008545901 0.030766794 -0.061882243 -0.07127709 0.108845614 0.2136317 0.1253666 -0.033473235
0.025498554 -0.0377377 0.015470698 0.46623886 0.14025763 0.1700033 -0.057198018 -0.04596156
0.009324705 0.2546371 -0.0033858248 0.20183791 0.08439364 -0.10425551 0.030255703 -0.013063432
-0.01433187 0.035945836 -0.073417164 -0.07941596 -0.04311429 -0.056465924 -0.020933727 -0.069065824
0.087877244 -0.057231493 -0.049033917 -0.022619538 -0.03684351 -0.09003297 -0.04940472 0.14220992
-0.06131839 0.032594465 -0.07704806 -0.21631722 -0.23027615 0.008943906 -0.025883961 0.012424233
-0.06596207 -0.049869597 -0.039203458 -0.026539696 -0.090788364 -0.06742807 -0.0020130274 -0.0917243
-0.023158668 -0.027822828 -0.056866273 -0.05871636 -0.082011566 -0.015686527 0.0059840335 0.15741356
-0.07233645 -0.052912924 0.21242899 0.01925106 -0.072007634 -0.0066630132 0.2157745 -0.03291551
-0.08005152 -0.055482082 0.17417738 0.14354478 -0.076053 0.108434156 -0.057888836 -0.12911566
0.23188213 0.100225404 -0.03755163 -0.06563125 -0.0496339 0.30884257 0.31900185 0.12957272
-0.021297405 -0.031974442 -0.045836855 -0.056567173 0.12358767 -0.07350215 0.040130883 0.028976884
-0.027555654 0.09763016 0.017268375 -0.044832103 0.060223866 -0.07421342 -0.11254412 -0.089058064
0.01906742 -0.12064741 -0.03826399 0.02513246 -0.049915917 0.022164268 -0.055158053 -0.064294174
-0.015927754 -0.060061213 -0.018051531 -0.006249082 0.035935502 -0.039109904 -0.17534164 -0.061072245
0.05697488 -0.11117331 0.1896115 -0.086515926 0.039085053 -0.028132651 -0.103668116 -0.054749746
0.007995862 -0.085295685 -0.059713565 -0.04513016 -0.025033554 0.011989942 0.15933427 -0.023461483
-0.035400897 0.072296515 -0.007349557 -0.027206587 0.050480254 0.010920752 -0.08002515 -0.046218753
-0.004204583 -0.15475398 -0.030604726 0.0018440655 0.013507759 0.063774765 0.00039949862 0.132225
-0.09354697 -0.023341004 -0.041089814 -0.03555956 0.042431593 0.16144036 0.024542887 -0.055335436
0.03002785 -0.00089187594 -0.00795858 -0.03815655 0.04349029 0.035460316 -0.06436863 -0.05707196
-0.114889085 0.013521119 -0.064974435 0.049803674 0.09123273 0.039110318 -0.006873048 -0.015624882
-0.035357613 0.1641087 -0.065827526 -0.1615122 -0.006729253 -0.10663038 -0.091107816 0.04481691
-0.087325625 0.0059161503 -0.0827294 0.0078475075 -0.0007252037 -0.06887094 0.07693776 0.05383761
0.0054554706 0.043321226 -0.055103295 -0.10057453 -0.030859685 -0.086348735 -0.0062700324 0.0017537394
00000000: 1b04 0c3c a50a fc3c 3c78 7dbd b9f9 91bd
00000010: 73ea de3d 45c2 5a3e 1a60 003e 3b1b 09bd
00000020: 58e2 d03c d992 1abd cf78 7d3c dcb6 ee3e
00000030: b29f 0f3e 5815 2e3e 7848 6abd 3042 3cbd
00000040: a6c6 183c cb5f 823e b7e4 5dbb 99ae 4e3e
00000050: 93d6 ac3d ea83 d5bd cfda f73c 0108 56bc
00000060: 38d0 6abc f13b 133d bd5b 96bd d6a4 a2bd
00000070: 9c98 30bd d048 67bd 357d abbc 6272 8dbd
00000080: fcf8 b33d 926b 6abd cad7 48bd 9c4c b9bc
00000090: 38e9 16bd 3563 b8bd 9b5c 4abd 7a9f 113e
000000a0: fe28 7bbd c681 053d 60cb 9dbd 4382 5dbe
000000b0: 83cd 6bbe 7689 123c 9a0a d4bc 038f 4b3c
000000c0: 1f17 87bd 1044 4cbd ce93 20bd c769 d9bc
000000d0: 40ef b9bd ba17 8abd ffec 03bb f3d9 bbbd
000000e0: 3fb7 bdbc b3ec e3bc 9cec 68bd 9180 70bd
000000f0: aef5 a7bd 0881 80bc b615 c43b 0531 213e
00000100: 2225 94bd 39bb 58bd fc86 593e 66b4 9d3c
00000110: bd78 93bd 6855 dabb fef3 5c3e 6ad2 06bd
00000120: 0df2 a3bd 2e41 63bd 8e5b 323e 67fd 123e
00000130: adc1 9bbd ba12 de3d d81c 6dbd e536 04be
00000140: 8272 6d3e fa42 cd3d bdcf 19bd ad69 86bd
00000150: eb4c 4bbd 9d20 9e3e 3654 a33e b6ae 043e
00000160: e577 aebc a2f7 02bd 6dbf 3bbd fbb2 67bd
00000170: 881b fd3d 4c88 96bd 4860 243d ee60 ed3c
00000180: 65bc e1bc 52f2 c73d 6876 8d3c dea1 37bd
00000190: 4dad 763d 35fd 97bd 887d e6bd 1364 b6bd
000001a0: 4733 9c3c fd15 f7bd b4ba 1cbd 97e2 cd3c
000001b0: a274 4cbd d791 b53c 69ed 61bd aaac 83bd
000001c0: ec7a 82bc bf02 76bd cee0 93bc 19c5 ccbb
000001d0: 1b31 133d b531 20bd c28c 33be e426 7abd
000001e0: 7e5e 693d d5ae e3bd 8429 423e 432f b1bd
000001f0: a617 203d 7276 e6bc f34f d4bd 4541 60bd
00000200: 1301 033c 81af aebd 3696 74bd 67da 38bd
00000210: 2b13 cdbc 7671 443c 8628 233e 4c32 c0bc
00000220: 8800 11bd 3210 943d 8dd4 f0bb 59e0 debc
00000230: 62c4 4e3d f4ec 323c 3ae4 a3bd e04f 3dbd
00000240: 99c6 89bb d477 1ebe c3b6 fabc 92b4 f13a
00000250: a64f 5d3c 589c 823d cc73 d139 fe65 073e
00000260: 8e95 bfbd a235 bfbc cb4d 28bd e7a6 11bd
00000270: c0cc 2d3d 9f50 253e 2a0e c93c 69a7 62bd
00000280: f7fc f53c c8cc 69ba b464 02bc 0b4a 1cbd
00000290: e022 323d d63e 113d b3d3 83bd 4ac4 69bd
000002a0: f84a ebbd af87 5d3c 5111 85bd f0fe 4b3d
000002b0: 3ad8 ba3d 2432 203d 4e37 e1bb 81ff 7fbc
000002c0: 25d3 10bd 1c0c 283e 95d0 86bd 7463 25be
000002d0: 1181 dcbb 0761 dabd bc96 babd f091 373d
000002e0: c7d7 b2bd 44dc c13b 086e a9bd d592 003c
000002f0: 991b 3eba 350c 8dbd 8b91 9d3d d384 5c3d
00000300: cec3 b23b 9971 313d feb3 61bd 05fa cdbd
00000310: 73cd fcbc 9bd7 b0bd d874 cdbb bbdd e53a

layer_list.2.weight f4 [10, 200]
-0.09567721 0.35546485 0.020189537 0.044710718 -0.024173534 -0.09628709 -0.019428793 0.1297687
-0.061266247 -0.041795194 0.079059094 0.011543491 -0.5825788 -0.19185877 -0.21932971 0.17899826
-0.026608674 0.1678506 0.028098073 0.07946523 -0.2552861 -0.027477628 -0.041986965 0.08132471
0.059476536 -0.018482761 -0.026486786 -0.07689845 0.0981586 0.018890126 0.016295653 -0.062013257
-0.35221717 0.0704315 0.02490046 0.019565199 0.017624237 0.07979259 -0.047346633 0.013143456
-0.013867053 -0.07094459 0.06579245 0.29339913 0.10947039 -0.051468033 0.049961947 -0.024509735
0.08200223 -0.040707152 -0.04166888 0.01426159 0.0021302775 0.0075608743 -0.0046470533 0.055840034
-0.03794526 0.3891344 0.09520005 -0.021421721 -0.033534426 -0.015303016 0.03249103 -0.13399217
0.17129996 0.0029252383 -0.29725102 0.06015891 0.021660315 -0.22380649 -0.20891672 -0.0039474308
0.22991535 -0.036714647 -0.28579026 0.0899721 0.069892384 0.0634162 0.004619483 0.12115089
-0.4546658 -0.35140866 0.0025851196 -0.05948409 0.050343066 0.069407314 -0.119661026 -0.6040473
0.05771252 -0.064340696 0.064013824 -0.022706784 -0.26711273 -0.031352255 -0.016367862 0.019324893
0.06639716 -0.11316751 0.27043945 -0.063590854 -0.054360893 0.026401829 -0.031242376 -0.06405115
0.013635956 0.062905364 -0.059738193 0.095699735 0.022600763 -0.016852854 -0.0014921137 -0.06174051
-0.036238246 -0.26317897 -0.08322358 -0.061026197 -0.017713798 -0.046070084 0.06559474 0.039681014
-0.25805163 0.41630074 0.21688211 0.0232705 -0.055382032 0.02585892 0.0036833417 -0.016401097
0.073082216 -0.04604145 0.07832326 0.021963771 -0.038576003 -0.04226781 -0.56022066 -0.005555956
0.035315026 -0.20172033 0.026598362 -0.05688128 0.1644783 -0.1604347 0.3584694 0.21528098
0.050316274 0.06407794 0.13020658 -0.00908152 0.17204306 0.06684758 0.039989248 -0.17046203
0.04284099 -0.26310676 -0.011543444 -0.045826044 0.22468875 -0.35376018 0.22011742 0.08034166
-0.018999675 -0.070663095 0.038253795 0.06420856 -0.04056125 0.04304622 0.048477866 0.042866446
0.12995636 -0.022732383 0.032153584 0.14275062 -0.45177656 0.27838328 -0.013356282 -0.059898715
-0.030218333 -0.45164368 -0.07904361 -0.18782799 0.008639949 0.20261067 -0.06491527 0.22737475
0.22184326 -0.07512833 -0.0034447263 0.0037033826 0.0399546 0.016007792 0.1525469 -0.006176152
-0.02875927 -0.0014801272 0.03796013 0.2214027 0.07138246 -0.043121967 0.074251786 0.0096466625
-0.049370546 0.070465155 0.0055851312 -0.113851435 -0.020681271 -0.123260625 -0.038776036 -0.004403311
0.005480509 -0.005450729 0.23186538 0.040043917 0.13020387 0.022481035 -0.35535428 -0.48140037
-0.2773833 0.15086658 0.03355264 0.41476312 0.36801776 0.2809657 0.045023583 -0.096094966
0.009138816 -0.003324886 0.04844366 0.2707729 0.019914376 0.032263804 0.049304686 -0.06678451
0.045699947 -0.051008347 0.0570165 -0.0045505757 0.014149902 -0.028437149 -0.0688251 -0.064273044
0.010664917 -0.048158847 -0.07743035 0.15533859 0.097232156 0.022959068 -0.04006823 0.018990703
-0.04818313 -0.041569293 0.029085195 0.06547827 0.025684815 -0.07537951 0.061724413 -0.056740217
00000000: 6af2 c3bd 7dff b53e 8764 a53c 9622 373d
00000010: 9307 c6bc 2a32 c5bd 2229 9fbc 16e2 043e
00000020: 51f2 7abd 7031 2bbd bce9 a13d e920 3d3c
00000030: e223 15bf a076 44be f897 60be 524b 373e
00000040: 6ffa d9bc 07e1 2b3e ee2d e63c abbe a23d
00000050: dcb4 82be c318 e1bc 86fa 2bbd 928d a63d
00000060: ab9d 733d 2969 97bc d1fa d8bc ef7c 9dbd
00000070: 6007 c93d 77bf 9a3c 767e 853c 9d01 7ebd
00000080: cf55 b4be 643e 903d 0dfc cb3c 3247 a03c
00000090: b460 903c 4c6a a33d 8bee 41bd a657 573c
000000a0: a332 63bc 664b 91bd 31be 863d 6938 963e
000000b0: 0332 e03d 25d0 52bd e6a4 4c3d a4c8 c8bc
000000c0: c9f0 a73d 8bbc 26bd fdac 2abd 72a9 693c
000000d0: 209c 0b3b 36c1 f73b 4f46 98bb 85b8 643d
000000e0: 7d6c 1bbd a03c c73e 3ef8 c23d 9b7c afbc
000000f0: 655b 09bd 80b9 7abc 5015 053d 3e35 09be
00000100: 4269 2f3e 5bb5 3f3b 4931 98be 3069 763d
00000110: f970 b13c 872d 65be 44ee 55be 7359 81bb
00000120: ee6e 6b3e 1962 16bd 1a53 92be 4b43 b83d
00000130: bd23 8f3d 5ae0 813d 085f 973b f51d f83d
00000140: f5c9 e8be d6eb b3be 1c6b 293b 97a5 73bd
00000150: 8834 4e3d 6c25 8e3d d710 f5bd d8a2 1abf
00000160: f763 6c3d 0ec5 83bd ae19 833d 9403 babc
00000170: 00c3 88be 396b 00bd e515 86bc 3d4f 9e3c
00000180: 3cfb 873d 5ec4 e7bd 0a77 8a3e ec3b 82bd
00000190: 87a9 5ebd a648 d83c 03f0 ffbc 402d 83bd
000001a0: 5869 5f3c 87d4 803d 09b0 74bd 39fe c33d
000001b0: 3c25 b93c ff0e 8abc 0793 c3ba 9ee3 7cbd
000001c0: 8e6e 14bd 65bf 86be 2071 aabd 9bf6 79bd
000001d0: 871c 91bc fcb3 3cbd 8956 863d 8f88 223d
000001e0: 581f 84be 5f25 d53e 5816 5e3e c7a1 be3c
000001f0: 45d8 62bd 16d6 d33c 3864 713b 985b 86bc
00000200: 21ac 953d f695 3cbd f267 a03d 5eed b33c
00000210: df01 1ebd 0321 2dbd 9f6a 0fbf bd0e b6bb
00000220: 7da6 103d c68f 4ebe cfe4 d93c 58fc 68bd
00000230: 006d 283e fe48 24be 4d89 b73e 9e72 5c3e
00000240: 7018 4e3d 4c3b 833d e054 053e a8ca 14bc
00000250: 0e2c 303e 62e7 883d c4cb 233d 998d 2ebe
00000260: 097a 2f3d eeb5 86be b720 3dbc 17b4 3bbd
00000270: cf14 663e 0e20 b5be 7666 613e 2b8a a43d
00000280: 35a5 9bbc d0b7 90bd 03b0 1c3d c77f 833d
00000290: 8e23 26bd 3c51 303d ba90 463d ba94 2f3d
000002a0: 4813 053e 4339 babc 7ab3 033d 382d 123e
000002b0: 424f e7be 4188 8e3e 4fd4 5abc 5b58 75bd
000002c0: 708c f7bc d73d e7be 9ee1 a1bd fb55 40be
000002d0: 938e 0d3c 2c79 4f3e 4cf2 84bd edd4 683e
000002e0: e12a 633e e2dc 99bd ebc0 61bb 73b4 723b
000002f0: 6fa7 233d c622 833c 4135 1c3e 5161 cabb
00000300: 9098 ebbc d400 c2ba 157c 1b3d 64b7 623e
00000310: f830 923d a9a0 30bd 5211 983d 090d 1e3c
00000320: c538 4abd 0950 903d 7a03 b73b f12a e9bd
00000330: c56b a9bc 1170 fcbd 9fd3 1ebd a649 90bb
00000340: d795 b33b 079c b2bb 1e6e 6d3e 1705 243d
00000350: 2a54 053e 262a b83c fff0 b5be 1c7a f6be
00000360: 2f05 8ebe c57c 1a3e 7e6e 093d d55b d43e
00000370: d36c bc3e bcda 8f3e a66a 383d 70cd c4bd
00000380: f9ba 153c 55e6 59bb dc6c 463d bfa2 8a3e
00000390: 7923 a33c 0d27 043d b6f3 493d 51c6 88bd
000003a0: de2f 3b3d 21ee 50bd 228a 693d ff1c 95bb
000003b0: fed4 673c 06f5 e8bc 2df4 8cbd 96a1 83bd
000003c0: e7bb 2e3c 3642 45bd ce93 9ebd 1411 1f3e
000003d0: a721 c73d a814 bc3c 961e 24bd 6492 9b3c
000003e0: ac5b 45bd 9044 2abd 1344 ee3c 7919 863d
000003f0: f668 d23c 9360 9abd bdd2 7c3d 6e68 68bd

layer_list.2.bias f4 [10]
-0.45023215 0.8409959 -0.27484557 -0.012409329 0.23655851 0.6132779 0.11861977 0.32350442
-0.8354657 -0.54625785
00000000: d484 e6be 824b 573f 8fb8 8cbe 8050 4bbc
00000010: 653c 723e c8ff 1c3f ecee f23d 5fa2 a53e
00000020: 15e1 55bf 8ed7 0bbf
